PythonApp/trained_model.pt (torch, 6024 bytes, 8 tensors)

linear1.weight f4 [16, 7]
0.0441743 0.2278691 0.27935904 0.039412364 -0.041847542 0.24554148 0.23423134 -0.11263308
-0.096052825 -0.35465565 -0.15795454 -0.15319279 -0.034760743 -0.2193945 -0.21378732 0.29573366
-0.020687401 -0.1593186 -0.08422229 0.010152947 -0.41042 -0.34843045 0.13473049 -0.19973679
0.09579371 -0.34003958 -0.011331369 -0.12857573 -0.11481303 -0.32886383 -0.10831574 0.26554838
0.026937632 0.09556112 0.04675267 0.022774668 -0.115081966 0.20083547 -0.09271518 0.01455376
-0.31354696 -0.05130937 -0.1261294 -0.017775098 0.17210984 -0.3782239 -0.14468978 0.2082831
0.18717659 -0.0009447418 0.08104362 0.021342935 0.12791583 0.030876355 -0.07024312 0.2242673
-0.09363286 -0.21911019 -0.18735227 -0.018421449 -0.30324504 0.30009133 -0.023703061 0.07934329
0.24344829 0.077993356 -0.08843432 -0.1709375 0.14509909 0.14758958 -0.28644386 -0.41492158
-0.36073232 0.20684734 -0.29049197 0.14070417 -0.17781986 0.27303794 -0.13885069 -0.36240187
0.23910007 -0.3232176 -0.39836532 0.020647218 0.2571422 0.23021708 -0.11611654 0.1102562
-0.18360236 0.3482323 0.064983904 -0.2719955 0.19593559 -0.0720207 -0.047037434 -0.2340065
-0.04980808 0.27068985 0.15559794 -0.35160223 -0.44572508 0.2681487 0.12560627 0.0069728945
0.021741142 -0.35040107 0.1584121 -0.034583054 0.2650372 -0.3651145 -0.43805644 -0.1904811
00000000: 1cf0 343d 8456 693e 2608 8f3e dc6e 213d
00000010: 5468 2bbd 3a6f 7b3e 57da 6f3e 2cac e6bd
00000020: 58b7 c4bd 6d95 b5be d6be 21be 92de 1cbe
00000030: 4861 0ebd f4a8 60be 10eb 5abe 676a 973e
00000040: a078 a9bc 6a24 23be bc7c acbd 8c58 263c
00000050: 9222 d2be 7a65 b2be caf6 093e cd87 4cbe
00000060: 7e2f c43d ab19 aebe 35a7 39bc 5ba9 03be
00000070: 1823 ebbd d760 a8be a5d4 ddbd f5f5 873e
00000080: 4fac dc3c 8cb5 c33d ba7f 3f3d f191 ba3c
00000090: 18b0 ebbd d0a7 4d3e 75e1 bdbd e572 6e3c
000000a0: 3a89 a0be c629 52bd 1128 01be 159d 91bc
000000b0: 903d 303e 90a6 c1be 8f29 14be 2a48 553e
000000c0: 38ab 3f3e 8da8 77ba 33fa a53d 61d7 ae3c
000000d0: 5efc 023e 69f0 fc3c a0db 8fbd 54a6 653e
000000e0: 96c2 bfbd 6c5e 60be 46d9 3fbe 94e8 96bc
000000f0: ef42 9bbe 92a5 993e ec2c c2bc bc7e a23d
00000100: 824a 793e fbba 9f3d 0e1d b5bd 3d0a 2fbe
00000110: db94 143e b921 173e c5a8 92be 9a70 d4be
00000120: e8b1 b8be cacf 533e 5dbb 94be c114 103e
00000130: 6916 36be a1cb 8b3e e02e 0ebe bd8c b9be
00000140: a6d6 743e c77c a5be 8af6 cbbe 5b24 a93c
00000150: 24a8 833e 07be 6b3e 82ce edbd 01ce e13d
00000160: 4202 3cbe 814b b23e 4816 853d ff42 8bbe
00000170: 57a3 483e 977f 93bd 53aa 40bd 669f 6fbe
00000180: 8f03 4cbd dc97 8a3e 1155 1f3e 3505 b4be
00000190: 1436 e4be c94a 893e ee9e 003e e17c e43b
000001a0: 7b1a b23c c567 b3be c836 223e f6a6 0dbd
000001b0: f5b2 873e 4af0 babe ef48 e0be 7a0d 43be

linear1.bias f4 [16]
-0.36209297 -0.169151 -0.28383777 0.15871394 -0.41780272 -0.3300764 0.14851423 -0.2698094
-0.10974949 0.32203647 -0.05212898 0.28931594 0.45492402 0.21383901 0.21203251 -0.41715416
00000000: 4064 b9be eb35 2dbe 2f53 91be e885 223e
00000010: 3dea d5be c6ff a8be 1d14 183e 7524 8abe
00000020: 57c4 e0bd f7e1 a43e 3385 55bd 3821 943e
00000030: cdeb e83e 9df8 5a3e 0d1f 593e 3b95 d5be

linear2.weight f4 [16, 16]
-0.007742919 -0.24313802 -0.13161811 -0.110577166 0.1449127 -0.17087007 0.1811652 0.056088988
0.13311198 -0.03686539 0.10274249 0.20160563 -0.22278093 0.18334775 0.13618699 -0.4066062
-0.1603376 0.0021747947 -0.05116882 -0.19366272 0.10592701 -0.1806511 -0.034694504 -0.31136957
-0.16472492 -0.23695026 0.22625422 -0.05127551 0.1348049 0.31938618 0.11444869 -0.16333885
0.08663822 -0.084848374 -0.0019817576 0.025639141 -0.32925817 -0.26100016 0.008652537 0.10128086
-0.2865498 0.007777778 0.116364606 0.22378393 0.035286404 -0.007498817 0.0026821126 -0.013522328
-0.028829956 -0.109127045 0.19352207 -0.055573534 -0.13234356 0.00078176404 -0.3000669 -0.11697214
-0.07168642 0.009610148 -0.12118984 -0.18527193 -0.17934401 -0.17762218 0.06367358 0.14829825
0.21892804 0.20801336 -0.02288795 0.08855025 -0.20343193 0.09238646 0.17152788 0.03400851
0.17899299 -0.09114872 -0.19709797 0.13512836 0.04906473 0.13194974 -0.08580781 -0.023818158
0.03676428 -0.21773371 -0.14573468 -0.10818314 -0.10876137 -0.21008134 0.052999932 0.12816012
-0.020653134 0.17130171 -0.006991901 0.17272854 -0.029595356 0.16823602 0.11494331 0.09462478
-0.086668804 0.13382941 0.031164024 -0.2395679 0.17736179 0.13231653 0.059179876 -0.19848324
-0.34428674 -0.19205303 -0.07898663 0.077573806 0.04236657 -0.3456423 0.11335448 -0.023366088
-0.15469716 -0.120509475 0.03607735 0.2752168 -0.09135862 0.108394414 0.12504339 -0.14339185
-0.19498444 0.11299666 -0.06738654 -0.23538297 -0.1675274 0.17992485 -0.14900157 -0.22289464
-0.22422044 0.04463193 0.11587663 0.21031153 0.2549829 0.07199851 -0.20218466 -0.07544399
-0.017767657 -0.30221432 -0.1799463 0.091617934 -0.079621606 0.31108993 -0.27968487 0.22036906
-0.13718358 0.18510368 -0.24878475 -0.21009313 0.14252153 -0.15012251 0.014187793 -0.22386417
-0.07194253 -0.1132576 0.2671268 0.0717344 0.11803024 0.123579085 0.0484213 -0.253489
0.1654756 0.16693366 -0.1990023 -0.24047917 -0.2553467 0.100636296 -0.21789764 -0.09201455
0.016705029 -0.10653845 -0.15296245 -0.27752048 -0.31026843 0.0059445645 0.1202035 -0.14647187
0.07364315 0.026933849 -0.08094437 0.14534694 0.1352018 -0.13813165 0.04776342 -0.17363647
0.026350187 -0.1331963 0.022696715 -0.034696087 0.116435654 0.296295 0.17221515 0.2517288
-0.14871752 -0.12542912 -0.093319125 -0.011570775 0.14460729 -0.20563059 -0.29270595 0.05597699
0.0687017 0.10838064 0.0025326961 0.16269426 -0.1380783 0.18564506 0.053841796 -0.2338249
-0.15178084 -0.120983034 0.010156154 0.08955769 0.17138329 -0.1821512 -0.016106771 -0.064653225
0.09034326 -0.020046681 0.0864301 0.092067376 -0.20553102 -0.2640158 0.045847733 0.17804192
-0.1721412 -0.1707016 -0.23798016 -0.2384399 0.019110769 0.14237534 -0.16130194 -0.10496207
-0.0639656 -0.23045544 0.21535015 0.16042334 0.14488442 -0.12652466 0.030416528 -0.092395335
-0.26663366 0.033062905 0.082570896 -0.16228244 0.19237475 0.054513328 -0.07685889 0.018791664
-0.0008206229 -0.27370816 -0.19762327 0.058070865 -0.30665165 0.025160369 -0.093912855 0.054971684
00000000: 50b8 fdbb 2cf9 78be e6c6 06be 4876 e2bd
00000010: ff63 143e 90f8 2ebe 5f83 393e 91bd 653d
00000020: 824e 083e 2a00 17bd a86a d23d b571 4e3e
00000030: af20 64be 83bf 3b3e 9a74 0b3e b02e d0be
00000040: 8a2f 24be 0087 0e3b 6696 51bd 854f 46be
00000050: 43f0 d83d 9afc 38be d31b 0ebd d56b 9fbe
00000060: a6ad 28be 17a3 72be 30af 673e 4506 52bd
00000070: 4c0a 0a3e 9686 a33e 1364 ea3d 4d42 27be
00000080: 616f b13d fcc4 adbd 60e0 01bb 2d09 d23c
00000090: 8794 a8be d0a1 85be 5fc3 0d3c 576c cf3d
000000a0: a8b6 92be bbdc fe3b 9150 ee3d 9d27 653e
000000b0: 7a88 103d a3b8 f5bb 62c6 2f3b c18c 5dbc
000000c0: cd2c ecbc 007e dfbd a62a 463e 13a1 63bd
000000d0: 1285 07be 4cef 4c3a 5ea2 99be 178f efbd
000000e0: 54d0 92bd e273 1d3c 6132 f8bd edb7 3dbe
000000f0: f5a5 37be 97e2 35be 4b67 823d 7fdb 173e
00000100: ac2e 603e 7401 553e 837f bbbc d559 b53d
00000110: 7650 50be 1d35 bd3d 01a5 2f3e 824c 0b3d
00000120: f049 373e 2eac babd 0dd4 49be 175f 0a3e
00000130: 19f8 483d d51d 073e 01bc afbd 4c1e c3bc
00000140: 2496 163d 96f5 5ebe 793b 15be 1f8f ddbd
00000150: 48be debd 901f 57be 7516 593d 683c 033e
00000160: c330 a9bc b769 2f3e 511c e5bb c0df 303e
00000170: f671 f2bc 1046 2c3e 6667 eb3d a3ca c13d
00000180: 6a7f b1bd 940a 093e b24b ff3c 4a51 75be
00000190: 549e 353e fc7d 073e 9966 723d 313f 4bbe
000001a0: 5a46 b0be 8da9 44be bec3 a1bd 04df 9e3d
000001b0: 9288 2d3d 07f8 b0be 6526 e83d 3d6a bfbc
000001c0: ef68 1ebe accd f6bd d8c5 133d 37e9 8c3e
000001d0: 3a1a bbbd e4fd dd3d 600b 003e 50d5 12be
000001e0: 00aa 47be cb6a e73d f401 8abd 3c08 71be
000001f0: 4e8c 2bbe 383e 383e de93 18be 7e3e 64be
00000200: 0b9a 65be f8cf 363d ba50 ed3d e85b 573e
00000210: 1e8d 823e f473 933d 7f09 4fbe 6182 9abd
00000220: 7a8d 91bc d6bb 9abe d843 38be 2fa2 bb3d
00000230: a710 a3bd 2e47 9f3e db32 8fbe 6da8 613e
00000240: da79 0cbe d28b 3d3e 6ec1 7ebe a722 57be
00000250: 2af1 113e b7b9 19be eb73 683c a63c 65be
00000260: 9b56 93bd 9af3 e7bd d8c4 883e 7ce9 923d
00000270: d7b9 f13d 0817 fd3d 6a55 463d 4fc9 81be
00000280: 7072 293e a8f0 2a3e 42c7 4bbe 2c40 76be
00000290: cdbc 82be 671a ce3d 8f20 5fbe 2072 bcbd
000002a0: fcd8 883c d530 dabd 30a2 1cbe 2a17 8ebe
000002b0: 81db 9ebe 9fca c23b 412d f63d b9fc 15be
000002c0: 38d2 963d 60a4 dc3c 29c6 a5bd d4d5 143e
000002d0: 5772 0a3e 6272 0dbe 93a3 433d c2cd 31be
000002e0: 59dc d73c 9c64 08be 76ee b93c 7c1d 0ebd
000002f0: d175 ee3d fab3 973e 2b59 303e 99e2 803e
00000300: 6849 18be 7e70 00be 191e bfbd 5993 3dbc
00000310: ef13 143e d390 52be 8edd 95be 2148 653d
00000320: 7ab3 8c3d abf6 dd3d 97fb 253b 5399 263e
00000330: 6664 0dbe bd19 3e3e 3789 5c3d cb6f 6fbe
00000340: 706c 1bbe f4c5 f7bd ff65 263c 066a b73d
00000350: 1a7f 2f3e d885 3abe 59f2 83bc e968 84bd
00000360: e305 b93d f038 a4bc 4402 b13d d28d bc3d
00000370: b976 52be 142d 87be d5ca 3b3d 9f50 363e
00000380: c845 30be 66cc 2ebe 12b1 73be 9729 74be
00000390: 308e 9c3c d7ca 113e 562c 25be 5bf6 d6bd
000003a0: 6600 83bd 83fc 6bbe c084 5c3e 0446 243e
000003b0: 955c 143e ae8f 01be 152c f93c c439 bdbd
000003c0: 3584 88be f86c 073d ee1a a93d 5e2d 26be
000003d0: e3fd 443e 5e49 5f3d 3268 9dbd faf0 993c
000003e0: 121f 57ba 7a23 8cbe c15d 4abe b7db 6d3d
000003f0: 7201 9dbe 1e1d ce3c 6255 c0bd fd29 613d

linear2.bias f4 [16]
0.1486836 -0.014500801 -0.15336919 -0.038019337 -0.048401557 0.2848694 0.21962032 0.007007344
0.0058381213 -0.16897063 0.06533593 -0.008351158 -0.113968216 0.21035716 -0.115996934 -0.254018
00000000: 8340 183e c594 6dbc d00c 1dbe 2aba 1bbd
00000010: b640 46bd 67da 913e 26e4 603e dd9d e53b
00000020: b64d bf3b a306 2dbe d8ce 853d 4cd3 08bc
00000030: 2b68 e9bd de67 573e cd8f edbd a60e 82be

linear3.weight f4 [16, 16]
-0.19465484 -0.22806303 0.24063204 -0.25958073 -0.09540998 -0.11359637 -0.08953839 0.27960977
0.09488653 -0.24372208 0.061088108 0.10723001 -0.053722408 -0.043775085 0.15424399 -0.050668824
-0.06672989 0.20514457 0.032483622 0.052063774 -0.0029190937 -0.23416439 0.09636783 0.21114531
-0.022197798 0.018976558 -0.17708455 -0.15762079 -0.05565515 0.10862484 0.11012215 0.2630252
-0.1021347 -0.26745778 -0.20917597 0.17022699 -0.28170273 -0.073992044 -0.16524136 0.16392532
-0.17246221 -0.042614587 0.19336973 0.0844117 0.18091276 0.037254404 -0.17620924 0.15087716
0.0038340548 0.13323785 -0.13071094 -0.086008236 0.13927665 0.047660843 0.043384798 -0.090856194
0.0038081217 -0.07736007 -0.047441434 0.1321351 0.1258892 0.19268212 0.10101768 -0.10668955
0.11289323 -0.15060395 -0.06402809 0.23836045 0.17692108 -0.027515154 -0.07760213 -0.19940928
0.21739812 -0.15518773 -0.107043855 0.08989688 0.096057326 0.099136576 0.19504955 -0.24196267
-0.028331455 -0.10376757 0.05857011 -0.27777502 0.2539887 -0.080808885 -0.23079735 0.08547316
-0.06805591 -0.101031855 0.17748174 -0.10417309 0.092488214 -0.035018876 -0.14779976 -0.1205168
0.040616665 -0.13034892 -0.052713115 -0.18000363 -0.1392931 -0.22431506 0.03768056 -0.11917615
0.06765265 -0.15304604 -0.17395715 -0.1063616 -0.038299635 0.03871317 0.11127064 -0.068176575
-0.18176524 0.10889266 -0.019127248 0.2940531 -0.13229251 -0.1304407 -0.03654996 -0.17836353
-0.0357126 -0.053131387 0.21307606 -0.042234268 -0.12634943 -0.039821096 0.19046992 -0.1954141
-0.12756315 0.13440749 -0.025219202 0.12624323 -0.27755412 -0.10199875 -0.10330332 -0.22393823
-0.03365144 -0.22055508 0.14956784 -0.30488077 -0.07759674 -0.049176347 -0.28482246 0.03272394
0.012332311 -0.051361084 0.1267935 0.13455452 0.10621498 0.09427888 0.16488957 0.04970603
-0.30837893 0.089527175 -0.21461245 0.069104195 0.061765052 0.14263524 0.014693238 0.029244302
-0.2959466 -0.22769085 0.17833166 -0.041560646 -0.15025723 0.046264783 -0.010069981 0.10106009
0.16159903 -0.039034348 0.0063015977 0.13412488 -0.21924056 0.22751646 -0.17479344 0.23495919
-0.24666455 -0.18728948 -0.015657475 0.1750479 -0.2637981 0.057513706 -0.20383969 0.07822093
0.07582416 -0.09928356 -0.112565525 0.10118585 0.06245142 -0.37407172 -0.08426037 -0.104505986
-0.14866138 0.219937 0.20792197 -0.078550085 0.09528742 0.044478543 0.06344859 -0.045005698
0.018421186 -0.06170318 0.16674207 -0.16694814 -0.012445935 -0.15710543 0.019862993 0.066278696
-0.02259277 -0.070830435 0.15882 0.06713773 0.16298638 0.031418163 0.1683158 0.12819277
0.0161089 0.10202893 -0.039684366 -0.056414627 0.07034813 0.009060963 -0.12281708 0.056513652
0.13513348 -0.025260948 0.020756627 0.1084153 -0.19311672 -0.17731649 0.08681501 0.24268559
-0.06433622 -0.03519627 0.043134198 -0.14221673 0.06815308 0.16291617 0.21163271 -0.020526566
-0.15283066 -0.024750426 -0.03593653 -0.19934885 -0.17352924 -0.09421952 0.12532598 0.03900954
0.19795115 0.19615775 0.123628356 0.16384563 0.1886771 -0.034626156 0.12480194 0.17127378
00000000: 9953 47be 5b89 69be 3f68 763e c4e7 84be
00000010: 4f66 c3bd 37a5 e8bd e75f b7bd 0329 8f3e
00000020: de53 c23d 4892 79be 8637 7a3d 689b db3d
00000030: 070c 5cbd 814d 33bd 23f2 1d3e 1d8a 4fbd
00000040: aea9 88bd 6b11 523e 8c0d 053d d340 553d
00000050: 444e 3fbb cac8 6fbe 7f5c c53d 7a36 583e
00000060: 28d8 b5bc ba74 9b3c a755 35be 5867 21be
00000070: a8f6 63bd b376 de3d b987 e13d 3dab 863e
00000080: ff2b d1bd 3af0 88be 3a32 56be fc4f 2e3e
00000090: 573b 90be 2489 97bd 0835 29be 0adc 273e
000000a0: ef99 30be a28c 2ebd b702 463e 0be0 ac3d
000000b0: 3241 393e 1398 183d 3270 34be 8b7f 1a3e
000000c0: c444 7b3b 816f 083e 17d9 05be 1625 b0bd
000000d0: 8a9e 0e3e 0438 433d 42b4 313d d012 babd
000000e0: ae91 793b f56e 9ebd f351 42bd 6c4e 073e
000000f0: 19e9 003e 764e 453e 5be2 ce3d 0d80 dabd
00000100: 9134 e73d ec37 1abe 2921 83bd c314 743e
00000110: cd2a 353e 7667 e1bc deed 9ebd f231 4cbe
00000120: 9d9d 5e3e 88e9 1ebe cf39 dbbd db1b b83d
00000130: b4b9 c43d 1e08 cb3d 12bb 473e 10c5 77be
00000140: 5e17 e8bc 1784 d4bd 36e7 6f3d 8738 8ebe
00000150: cf0a 823e 217f a5bd 2456 6cbe 8d0c af3d
00000160: e660 8bbd cae9 cebd c6bd 353e b358 d5bd
00000170: 766a bd3d f46f 0fbd d258 17be 83d1 f6bd
00000180: a95d 263d 307a 05be b5e9 57bd df52 38be
00000190: daa2 0ebe d9b2 65be ee56 1a3d a012 f4bd
000001a0: 798d 8a3d 1ab8 1cbe d321 32be 1cd4 d9bd
000001b0: 14e0 1cbd b391 1e3d dce1 e33d 29a0 8bbd
000001c0: ab20 3abe 1d03 df3d bfb0 9cbc 218e 963e
000001d0: b077 07be 3f92 05be 69b5 15bd eea4 36be
000001e0: 6047 12bd 4ca0 59bd 9c30 5a3e d7fd 2cbd
000001f0: bf61 01be 721b 23bd 8c0a 433e a21a 48be
00000200: ea9f 02be 1ea2 093e 8098 cebc e845 013e
00000210: 931b 8ebe b8e4 d0bd b190 d3bd 1050 65be
00000220: 18d6 09bd 31d9 61be 5028 193e 5519 9cbe
00000230: 0aeb 9ebd 236d 49bd 40d4 91be 8a09 063d
00000240: 760d 4a3c 0060 52bd 28d6 013e a9c8 093e
00000250: 3d87 d93d 4915 c13d d0d8 283e 8d98 4b3d
00000260: d8e3 9dbe 065a b73d 5ec3 5bbe 8086 8d3d
00000270: 5afd 7c3d f90e 123e e8bb 703c bf91 ef3c
00000280: 5086 97be ca27 69be 939c 363e 7f3b 2abd
00000290: 08dd 19be 2480 3d3d 90fc 24bc 98f8 ce3d
000002a0: 377a 253e 7be2 1fbd a27d ce3b 0858 093e
000002b0: 9980 60be 13fa 683e 0dfd 32be 2499 703e
000002c0: a295 7cbe d0c8 3fbe 1b44 80bc c23f 333e
000002d0: 8b10 87be 7e93 6b3d 5abb 50be 4c32 a03d
000002e0: b249 9b3d 2e55 cbbd c188 e6bd 873a cf3d
000002f0: 0fcd 7f3d 5486 bfbe b390 acbd 3c07 d6bd
00000300: b03a 18be 2a37 613e 7fe9 543e dede a0bd
00000310: 0d26 c33d 222f 363d 56f1 813d e557 38bd
00000320: 07e8 963c 79bc 7cbd 6fbe 2a3e 74f4 2abe
00000330: 09ea 4bbc 3fe0 20be b7b7 a23c 20bd 873d
00000340: 7914 b9bc 8c0f 91bd b6a1 223e 827f 893d
00000350: e7e5 263e 55b0 003d fa5a 2c3e f744 033e
00000360: d0f6 833c 8bf4 d03d 138c 22bd 0613 67bd
00000370: ae12 903d 6f74 143c 8587 fbbd dc7a 673d
00000380: 6e60 0a3e 0cf0 cebc cd09 aa3c d708 de3d
00000390: 64c0 45be 7492 35be 11cc b13d 9282 783e
000003a0: b5c2 83bd f729 10bd 7cad 303d 43a1 11be
000003b0: d893 8b3d 7fd3 263e 3fb6 583e 5427 a8bc
000003c0: a47f 1cbe 68c1 cabc 2f32 13bd 1b22 4cbe
000003d0: a6b1 31be 2af6 c0bd 7455 003e 78c8 1f3d
000003e0: b5b3 4a3e 94dd 483e dd30 fd3d 26c7 273e
000003f0: 9234 413e 28d4 0dbd 2998 ff3d 6562 2f3e

linear3.bias f4 [16]
0.015196786 -0.24468908 0.15956184 -0.18010134 -0.15117784 0.03256583 0.074462794 -0.07163659
-0.20731717 0.19313334 -0.10475482 -0.024007278 0.09367984 0.2541983 -0.005866261 -0.18701081
00000000: f1fb 783c c68f 7abe 2e64 233e 7c6c 38be
00000010: 5dce 1abe bf63 053d f37f 983d 34b6 92bd
00000020: f44a 54be bfc4 453e b289 d6bd e9aa c4bc
00000030: 37db bf3d 4826 823e c439 c0bb c37f 3fbe

linear4.weight f4 [2, 16]
-0.07071809 -0.00023738196 -0.27221328 -0.0026378117 0.083453245 -0.1097718 -0.097048715 -0.28153422
0.1526633 -0.15709347 0.06406171 0.15973313 0.0014516977 0.19581878 0.098145604 0.124347135
0.05488027 0.022160545 0.1526332 0.105670735 -0.121360384 -0.032824166 0.073433764 -0.03954717
0.02557263 -0.07360512 -0.045946937 0.09724527 -0.04943673 0.15679726 0.1623237 -0.04363537
00000000: a5d4 90bd bce9 78b9 8a5f 8bbe 23df 2cbb
00000010: 89e9 aa3d 0ad0 e0bd 7ac1 c6bd 4125 90be
00000020: c553 1c3e 1cdd 20be c932 833d 1591 233e
00000030: e446 be3a b884 483e 9000 c93d b6a9 fe3d
00000040: 22ca 603d 088a b53c e14b 1c3e e669 d83d
00000050: cb8b f8bd a272 06bd 7164 963d 37fc 21bd
00000060: b17d d13c 48be 96bd db32 3cbd 8728 c73d
00000070: 2b7e 4abd 768f 203e 2f38 263e 00bb 32bd

linear4.bias f4 [2]
-0.020828074 0.11374783
00000000: a39f aabc 9ff4 e83d
